mage_orchestration/models_gcn_20240728_050159/gcn.pth (torch, 18320 bytes, 8 tensors)

conv1.bias f4 [64]
00000000: 1779 f23b 521c 78bd 0000 0000 9de2 fabc
00000010: 62da 3d3d 5e98 53bd 74e7 b13d 57c9 79bd
00000020: edcc b7bc 19dc f0bc 98f7 9cbb c633 adbc
00000030: 0598 e13b 7c18 83bc 3fce 2d3c 0000 0000
00000040: 0000 0000 20c4 57bc 6070 e0ba 0140 2dbd
00000050: 9f23 15bd 24af 11bd a2c5 65bd eb22 85bd
00000060: ea6d ba3d 0000 0000 788d bc3c 0000 0000
00000070: c7ea adbc b8fe febc bb0e 10bd e96c 523d
00000080: 0000 0000 5a59 b33d 4463 db3c 134c 87bd
00000090: e3fb c3bb 07b9 13bd 6aba 3a3d 1720 3f3c
000000a0: 90c5 35bd 8ccf 68bd 0000 0000 0000 0000
000000b0: 0000 0000 b706 76bc 42ad 19bd 5af8 3fbc
000000c0: 16c0 d03c b93e 8ebd 0000 0000 faf1 68bc
000000d0: 0000 0000 0000 0000 949c 3fbd 3e68 62bc
000000e0: f48f fabc 0385 d1bc 9e53 1fbd 8162 25bd
000000f0: 87dd ddbc 1916 09bd b90b 71b8 0000 0000
0.007399689 -0.060573883 0.0 -0.030625636 0.046350844 -0.05165898 0.08686724 -0.06098303
-0.022436583 -0.029401826 -0.0047902577 -0.021142852 0.006884577 -0.016002886 0.010608255 0.0
0.0 -0.013169318 -0.0017123334 -0.042297367 -0.036410924 -0.035567418 -0.05609668 -0.06500801
0.09102996 0.0 0.023016676 0.0 -0.021230115 -0.031127319 -0.035170298 0.051373396
0.0 0.08757277 0.026780732 -0.06606307 -0.005980955 -0.036065128 0.045587935 0.011665366
-0.044377863 -0.056838557 0.0 0.0 0.0 -0.015016249 -0.037518747 -0.0117169265
0.025482219 -0.06945557 0.0 -0.014217848 0.0 0.0 -0.046780184 -0.013818799
-0.03058622 -0.02557612 -0.038898103 -0.040377144 -0.027083172 -0.03346834 -5.7469795e-05 0.0

conv1.lin.weight f4 [64, 18]
00000000: 359e a3bd 6337 20be 1b72 643d 2a5e 0d3b
00000010: f42a 5ebe d742 143e 1ee0 25be 7468 01be
00000020: 339f b03c 04d2 05be 92d1 4bbe 0a33 48be
00000030: 37b5 ac3d fc5d 523e f704 b6bd 6dfe 293e
00000040: 918e 0d3e 2163 5e3d 138a e33d 6965 693d
00000050: a596 f13b 672c 91bd 966f 973b 40b2 babd
00000060: 62b9 d1bd 1465 203e 8a73 97be 66bf 6c3d
00000070: 8229 d0bd f0e8 abbd 1a2d 413e d5d2 093e
00000080: 4602 9fbe 7203 97be eb74 d1bd c85a a5be
00000090: 732f c2bd 45d0 37bb 18da fdbc 2dc8 413e
000000a0: 8ba2 413e 5ede 7c3e b212 eb3d 28d7 df3b
000000b0: 7cf1 03be 3620 a9bd a238 d8bc 69ca 09bc
000000c0: 8620 9b3d 53b4 8dbd 36f7 9c3b 3a25 0dbe
000000d0: 7a71 25be e0bb 063e dca8 27bd 0997 523e
000000e0: bdb5 b83c d026 1c3e bf8c 85bb 3454 7fbd
000000f0: 0b30 11be 91d8 54be e6ca 0fbd 6ce6 9ebd
00000100: 0c40 833e 2b72 80be 39c5 23bd f69c 3f3e
00000110: 17fe 38bc af21 3fbe f6ac 1f3e 7f7d c6bc
00000120: f4ba b83d 3719 b23d d929 053e e88d f73d
00000130: 9bf3 77bd 7260 bfbd e798 2dbe dc5b 50be
00000140: a1a2 00be eeb7 7f3e cec1 2e3e 6c47 dd3d
00000150: 9db2 6e3e 5a69 ccbd 70cf f0bd 7807 3b3d
00000160: 3728 9b3e a61f 2abe 72f1 66be d325 aabd
00000170: 2c56 3c3d 9aba 033d 93fd 683e 04b0 05bd
00000180: 922c 0cbe a4e0 6d3e a616 82be 8635 163e
00000190: 3bd9 01bd e8fb 16be 7e76 82be 8e4b a1bd
000001a0: e0c6 94be 1cac 9a3b 346b bd3c 07e2 8cbe
000001b0: 006b 143e 3772 2ebd 86d5 48be e744 ab3c
000001c0: 6452 0fbe 003b 87be c67c 233d 121a e43b
000001d0: 62df 3fbe c90e e5bd 908f 9c3e bc91 55be
000001e0: 1e98 c6bd 36db 533e df2c 59be 8a99 303e
000001f0: 06fb c3bd 1eed fbbb e547 18be 8a0d 36be
00000200: a863 423e 6d9f 77bd ebcb e3bd 3a58 3c3e
00000210: 79fc 013e 472c 073e 1e22 403e 715f 433e
00000220: 3312 c73d 930b 89be 72fc 13bd f889 84be
00000230: 57d9 203c 3b38 8fbe 4df9 19be addb eabd
00000240: 069c 81be 6895 62be 00a6 773e 2930 3bbd
00000250: 7dbc 643e 055f 3dbd d5de aabd ab33 26bc
00000260: 7269 123d 7cc8 53be 8f1e 11bd 2cd8 3fbe
00000270: 947e 45be eae3 353e 0663 54be 5123 8cbe
00000280: ef66 d03d 40e7 b43d 2f12 eabd 6a53 773e
00000290: 9774 55be 1381 3dbc f367 51be 96b6 d7bd
000002a0: 8935 613e d1ec 093d a76f d73c eb68 f33d
000002b0: 7ab1 66be ab08 dcbd 4c80 7ebd c2f0 d9bd
000002c0: 15b0 33bd 8d4b a5bc d3ee d9bd a939 c3bd
000002d0: 3324 113e 5351 883d c339 76be 68d0 de3d
000002e0: 0854 e7bd c635 44bd 79b1 813e 649e 93bd
000002f0: b21b 67be 2d2b 883e 6498 703e ac00 3f3e
00000300: 940f 11be 62e1 68bd 24ea 42bd f89e 693e
00000310: 96a1 08be 6697 2e3e 5a43 983d 9492 5abd
00000320: 82fc 373e ff3c 713c c4de 4a3e a983 4e3e
00000330: 5965 84be 3c0f 583d 7f8f 443e f242 52be
00000340: f3d3 3cbe f7ef 49be 1a89 0e3e 1f5b 09be
00000350: 4283 67bd 549b 703e f35e 2c3e bbda e93d
00000360: c36c 9c3c dfaa 7bbe c3ca 3d39 cf2c 893e
00000370: 4685 03bd e2ee 12bd a697 f43c 5e8a 8e3c
00000380: 27d5 bebd face 123e 866a 233d 59e6 723e
00000390: 6fed fc3b bf6d 083e 33b7 76be 41e9 2d3e
000003a0: 44b2 0b3e 17c1 3d3d c461 433e 0c82 913e
000003b0: 94cd 4f3d 2643 66be 1af0 2c3e a0f8 9c3c
000003c0: f4c1 8ebe 3608 4bbe 6e1f 5bbe 0a0c 85be
000003d0: 6b8b dcbd b5e0 66be 3e7e 4f3d a6e1 a0bd
000003e0: d7f2 3e3d 9506 17be 2d1a 0d3d cd6b 903c
000003f0: 16c8 c13b 504e febc 6047 04be 967f 6abd
-0.0798916 -0.15646128 0.055772882 0.0021571019 -0.21696073 0.14478622 -0.16198775 -0.12637502
0.021560287 -0.13068396 -0.19904163 -0.1955072 0.084330015 0.20543665 -0.08887666 0.16600962
0.13823916 0.054293755 0.1111032 0.056981478 0.0073726946 -0.07088547 0.0046214564 -0.0911603
-0.10240437 0.15663558 -0.29580337 0.05779972 -0.10164167 -0.08394039 0.18864861 0.13459332
-0.31056422 -0.29494816 -0.102273785 -0.32295823 -0.094817065 -0.0028047722 -0.030987784 0.18924017
0.18909661 0.24694201 0.11478175 0.0068310685 -0.12885088 -0.08258097 -0.026394192 -0.008410075
0.07574563 -0.0691916 0.004790212 -0.13783732 -0.16156569 0.13157606 -0.04093252 0.20565428
0.022547597 0.15249181 -0.004075616 -0.06233616 -0.14178483 -0.20785739 -0.03510561 -0.07758793
0.256348 -0.25087103 -0.039983008 0.1871222 -0.0112910485 -0.18665193 0.15593323 -0.024229763
0.090200335 0.086962156 0.13004245 0.12087613 -0.060535055 -0.09344567 -0.16952859 -0.20347542
-0.12562038 0.24972507 0.17066118 0.10804638 0.23310323 -0.09981032 -0.117583156 0.04566142
0.3030412 -0.16613635 -0.22553042 -0.08307996 0.045980617 0.03216038 0.22752981 -0.032638565
-0.13688877 0.23230225 -0.25407904 0.14668855 -0.031701308 -0.14744532 -0.25481027 -0.07875739
-0.2905798 0.004720224 0.023122407 -0.27516195 0.14493942 -0.042589393 -0.19612703 0.020906879
-0.13996273 -0.264122 0.039913915 0.0069611156 -0.18737558 -0.11184461 0.3057828 -0.20856375
-0.09696983 0.20689091 -0.21208523 0.1724607 -0.09569363 -0.0076881787 -0.14871176 -0.17778602
0.18983328 -0.060454775 -0.11122879 0.18393031 0.12693967 0.13200484 0.18763015 0.19079377
0.09720268 -0.26766643 -0.036129422 -0.25886512 0.009817443 -0.27972588 -0.15036507 -0.11467681
-0.2531435 -0.22127306 0.24184418 -0.045700226 0.22337528 -0.046233196 -0.08343283 -0.010144155
0.03574509 -0.20681947 -0.035429534 -0.18734807 -0.19286567 0.17762724 -0.207409 -0.27370694
0.10175883 0.0883317 -0.114292495 0.24152914 -0.20845257 -0.011566418 -0.2044981 -0.105328724
0.21993078 0.03367311 0.026298357 0.11885246 -0.2252864 -0.10743841 -0.062134072 -0.10641624
-0.043869097 -0.020177627 -0.10641255 -0.09532482 0.14173965 0.06656136 -0.24045472 0.10879594
-0.112953246 -0.047902845 0.25330713 -0.07207945 -0.22569159 0.2659544 0.23495632 0.186526
-0.14166099 -0.056855567 -0.047586575 0.22814548 -0.1334289 0.17049941 0.07434721 -0.053362444
0.17967418 0.014724015 0.19811541 0.20167412 -0.25858572 0.052748904 0.19195364 -0.2053335
-0.18440227 -0.19720446 0.13919488 -0.13413666 -0.05652166 0.23496753 0.16833095 0.11418673
0.01909483 -0.24576901 0.00018099979 0.26792 -0.03210952 -0.035872348 0.029857468 0.017399963
-0.09317999 0.14336768 0.03989651 0.23720683 0.007718734 0.13323115 -0.24093322 0.1698351
0.13642222 0.046326723 0.19080263 0.2841953 0.050733164 -0.22486553 0.16888466 0.019161522
-0.2788235 -0.19827351 -0.21398708 -0.25985748 -0.10768779 -0.22546656 0.050657503 -0.07855539
0.04661831 -0.14748605 0.03444879 0.017629528 0.0059137447 -0.031043202 -0.12917852 -0.05725058

conv2.bias f4 [32]
00000000: b08b dcbc b29b a8bc ca2a 903d 5097 db3c
00000010: 5f58 c43c 714b f7bc dba9 4cbc 75ec 373d
00000020: c3dd b33c 766c 3bbd a4ac 5fbd 1be7 19bd
00000030: cfe4 05bd 9be1 b7b8 a8cd aebc 2510 42bd
00000040: 593b 2abd ef44 e8bb d8b8 3dbd ea52 4ebd
00000050: 5772 13bd 342c 08bd 526e 20bb 2fa2 21bd
00000060: d722 f5bc 7af8 81bc 2220 1dbd e2f2 c5bc
00000070: 3723 cd3d db58 05bd 236e 2c3d 3467 12bd
-0.026922077 -0.020582054 0.07039411 0.02680555 0.02396792 -0.03018734 -0.012491669 0.044903237
0.02195633 -0.045757733 -0.054608002 -0.037573915 -0.032688912 -8.768142e-05 -0.021338299 -0.047378678
-0.041560505 -0.0070882956 -0.04631886 -0.05037204 -0.035997715 -0.03324528 -0.0024479819 -0.03946131
-0.02992384 -0.015865553 -0.038360722 -0.024163667 0.10016482 -0.032555442 0.042097222 -0.035742953

conv2.lin.weight f4 [32, 64]
00000000: e2da 16be 3742 17be 71d2 97bd 8cb0 153e
00000010: fe98 79be f1d7 683e 2981 65bd eadf 3d3e
00000020: e82c a3bd 2623 813d a7c6 6ebe 6a05 3b3e
00000030: 5867 4b3e 3f04 52be 906b f3bd 35c4 943d
00000040: 8a7b 12bd b3db 71be ac71 bdbd 8829 303d
00000050: 4638 f6bd dd38 6c3e 9deb 76be 6ca3 30be
00000060: b75e 833d 9d91 e8bd 37c8 19be e645 e1bd
00000070: 0bef 07be 0f68 c8bd ac5f 1bbe 9c0d 91be
00000080: f2d4 933d d458 2cbe e7e9 ba3b 2f66 24bd
00000090: b065 5b3e 5049 eb3d b5a3 43bd 1ed0 d33d
000000a0: 6b41 80be 067d b9bc ab46 89bd 8c4d 493e
000000b0: 1d9d 453e 86b2 403e f84d 60be 077d 373c
000000c0: cb7e 6bbe b14f a83d 0630 483e 1bc1 5e3e
000000d0: 7233 613d da38 5dbd 9115 3e3e 267b 8c3c
000000e0: 522d edbc ae32 4bbd 58ba 48be d03d 403c
000000f0: a36a c03d 8b53 ad3d c2bb 22be 3851 713d
00000100: 1b99 d33d 8408 183e 9cc7 0d3e 6069 cbbd
00000110: c5b0 58be cd3d e1bc 34ee c53e 4cfe 1bbe
00000120: 9c44 4a3e d743 433e fcab debd 2c15 36be
00000130: de82 213e b9e7 ce3d 6833 5e3d 5f6a 66be
00000140: 8bae ab3d 9f61 2b3e 25ad fcbd d83d 393c
00000150: edd8 e3bd c77a 33be 7039 c03d f75a 253e
00000160: afe3 353e c0d7 f03d f7b4 c7bd d88d f33d
00000170: e83c 2abc e77d d7bd cdc1 033e 4016 d2bd
00000180: ef7c 81bd f74b 3c3e c15c 203e 2d73 5d3e
00000190: 28b2 c73c df19 52bd 2bc7 663d afa6 3d3e
000001a0: e9f5 c0bb 0172 20be 4415 a13d 2169 40be
000001b0: 7ffb 6a3e 0806 a8bd 9ce5 293e b1b5 bb3d
000001c0: c5b0 6f3c 5e05 32be 9d90 bd3d b4d0 edbd
000001d0: b0ff ccbd 31de 193e 3bea 57be 5fed 32be
000001e0: 1d2f 733d 5657 edbd 1a4e e0bd 3ba2 9fbd
000001f0: 5946 fa3d 73e2 80be 2e3b 353e 59d8 68be
00000200: 7b1a 443d 161a 333e 6ab9 dfbd c3a6 8fbd
00000210: dd7d 323d 45ef 81be 6c3a 3e3e 0e30 363d
00000220: d4d2 d53d b86e 903d 4b71 ebbd df7f fcbd
00000230: 91dd 903e 852a 773e 1c30 533e 3384 30bd
00000240: 3a46 643e 31f9 4d3e 502b 28bc 11c6 e83d
00000250: c8cf 9b3d 5a6d 0c3e 3380 6ebe 125f 9c3d
00000260: a7d2 c3bc f947 59be 70f3 103e 6884 713d
00000270: 4208 0c3e fd26 09be 6e48 883e c4b3 f1bc
00000280: b3ab 3dbe 2a97 c73c 24eb 263e 54f5 3e3d
00000290: f0ce 31be 1bbc 2d3e b3b4 9b3e 75b3 f23d
000002a0: b228 30bc c11e 94bd db38 ffbd 6529 02be
000002b0: 8ead 34be f7b8 fb3d 0076 18bd a578 1cbe
000002c0: 5471 cebc 9d20 0a3e 0718 dc3c be9c 1fbe
000002d0: e920 6a3e 7852 fabc 8b20 423d 7493 a6bd
000002e0: 928c 30be 697a 39be 239a 6fbe 8f21 0ebe
000002f0: 941b 8b3e bdca d8bb 746d 81be 8ed5 0e3e
00000300: d706 6f3e c07b 6fbe 4615 7a3e 0c1e 103e
00000310: 0aaf 50bd aa72 273e 73f3 81bd 61d8 67bc
00000320: 7013 d13c b011 203e 5799 28be dfa2 0bbe
00000330: 6221 60be a381 9a3d 41b6 843e 1056 27bc
00000340: 8fd7 d3bd 8b46 01be 188a a4bb 7325 7e3d
00000350: 6e11 633e 3c86 08be 7ab0 88be f273 153e
00000360: f3d8 793e 2d00 1ebe 5974 2f3d ebbe 2bbe
00000370: ced5 7f3e 4f1f 20bd f06b f5bd de09 0ebe
00000380: 8918 16be 4242 4b3c 2962 463d 14d9 24be
00000390: c90b f63d 726f 223e 4cd0 283e 46a6 e63d
000003a0: 1048 98bc 9eb8 a73d 7322 d5bd 73bd 40be
000003b0: 9928 e73d 5b8a 3e3d 3c96 8cbd f43e 78bc
000003c0: 32aa 7c3d e7b3 333e 358a 1ebe d002 933c
000003d0: bf98 af3d 0ad8 4b3e 73e2 3d3d f03b 2e3e
000003e0: 5f0c 343d 2f09 52be 5fcb 48be 58e2 7c3e
000003f0: 9e6a d13c 81cd 2ebd f975 0a3c 0216 4a3e
-0.14731935 -0.14771353 -0.074131854 0.14618129 -0.24374768 0.22738625 -0.05603138 0.18542448
-0.079675496 0.06305532 -0.23317967 0.18263784 0.19863641 -0.20509432 -0.1188575 0.07263986
-0.035762347 -0.23618965 -0.09250197 0.043008357 -0.12022452 0.23068567 -0.24113317 -0.1724984
0.0641455 -0.113558985 -0.15017782 -0.1099966 -0.13274781 -0.097854726 -0.15173215 -0.28330696
0.072183505 -0.1683076 0.005704153 -0.040136512 0.2142551 0.114885926 -0.047763545 0.103424296
-0.2504991 -0.022642624 -0.06702932 0.19658488 0.19298215 0.18818101 -0.21904743 0.011199242
-0.22997586 0.08218325 0.1954957 0.21753351 0.054980703 -0.054009296 0.18562914 0.017148566
-0.028952274 -0.04960888 -0.19602334 0.011733487 0.09395339 0.084632 -0.15891936 0.058915347
0.10331937 0.14846998 0.13845676 -0.09932208 -0.21161182 -0.02749529 0.38658297 -0.15233725
0.19752735 0.19068848 -0.10872647 -0.17781514 0.15772578 0.10102791 0.054248244 -0.22501515
0.08382901 0.16736458 -0.12337712 0.011306249 -0.1112536 -0.17527305 0.09385955 0.16147982
0.17762636 0.11759901 -0.09751313 0.11892289 -0.010390498 -0.10522061 0.12866898 -0.1025815
-0.06322657 0.18388353 0.15660383 0.21625967 0.024376944 -0.051294204 0.056342285 0.18520616
-0.00588869 -0.15668489 0.07865384 -0.18790103 0.229475 -0.08204275 0.16591495 0.09165514
0.0146295475 -0.1738486 0.092560984 -0.116120726 -0.10009706 0.15026166 -0.21085446 -0.17473362
0.059371103 -0.11588924 -0.10952397 -0.07794615 0.12220449 -0.25172767 0.17698357 -0.2273878
0.047876816 0.1749042 -0.10924037 -0.07014229 0.043577064 -0.2537786 0.18576974 0.044479422
0.10440603 0.07052368 -0.11496218 -0.12329077 0.28294042 0.24137314 0.20623821 -0.043094825
0.22292414 0.2011459 -0.010264233 0.11365903 0.076079905 0.1371359 -0.23291092 0.07635321
-0.023904158 -0.21218862 0.14155364 0.058964163 0.13675025 -0.13393779 0.2661776 -0.029504664
-0.1852253 0.024364073 0.16300637 0.046620682 -0.17364097 0.16966288 0.304113 0.11850635
-0.01075189 -0.07232428 -0.12462016 -0.12711103 -0.17644331 0.122911386 -0.03722191 -0.15280397
-0.025200523 0.13489003 0.026866926 -0.15587136 0.22864117 -0.030556902 0.047394317 -0.08133593
-0.17241123 -0.18113102 -0.23398642 -0.13879989 0.27169478 -0.006615965 -0.2527882 0.13948652
0.23342453 -0.2338705 0.24422178 0.14073962 -0.05094818 0.16352335 -0.063452624 -0.01415071
0.025521964 0.15631747 -0.16464745 -0.13636349 -0.21887735 0.075442575 0.259203 -0.01021339
-0.10343849 -0.12624566 -0.005021345 0.062047433 0.22174618 -0.13332456 -0.2669714 0.14595011
0.24399166 -0.15429755 0.042835567 -0.16772048 0.24983904 -0.03909236 -0.11983478 -0.13870952
-0.14657797 0.012405934 0.048433457 -0.16098434 0.120139666 0.15862826 0.16485709 0.11262183
-0.01858905 0.0818951 -0.10406961 -0.18822269 0.1128704 0.046518665 -0.068645924 -0.015151728
0.06168575 0.17549096 -0.1548241 0.017945677 0.08574056 0.19906631 0.046358537 0.17015052
0.04395711 -0.20511316 -0.1960883 0.24695718 0.025563534 -0.042676453 0.008450978 0.19734958

conv3.bias f4 [16]
00000000: ba4c 87bd 1b3a 54bc 89c4 07bd ec17 d9ba
00000010: 23d9 bebc 1e0f 293c 4955 2cbd 0cfe 9fbd
00000020: 23b2 febd 6530 a9bb fe5c 74bd 32f8 63bc
00000030: 6c63 3fbd 2946 bf3c 5f0b 863c f7b2 2a3e
-0.06606431 -0.012953307 -0.033146415 -0.0016562915 -0.023296898 0.010318546 -0.04207352 -0.078121275
-0.12436321 -0.00516324 -0.059658997 -0.013914155 -0.046725675 0.023348885 0.016362844 0.16669832

conv3.lin.weight f4 [16, 32]
00000000: 3868 e9bd f932 ffbd 8ac4 00be 66a0 1ebd
00000010: c694 83bc 6547 803d fc22 4c3e 80d8 6bbc
00000020: fd17 13be f2ed 6c3e c0d3 633d e02b 983e
00000030: 636c 4fbd f936 9dbe b9a3 97bd fecf 0e3d
00000040: 56d7 9bbe 7057 dcbd 0973 c43d d220 0e3d
00000050: 9494 e83d 4c03 993e f1b0 63bd 0626 18bd
00000060: f407 3c3e 2a51 583c d678 853e 4857 e7bd
00000070: 5d90 8dbe 7b13 30bd 1ed7 0b3e 275b e23d
00000080: 9288 773e da6b 273e 9dc7 fa3d e3a9 8c3d
00000090: 8be9 8f3e 5b69 5e3e 1ff2 363e 04ed 413e
000000a0: ba23 5cbe 3f2f 9e3e 472f 95be 32a2 f33d
000000b0: 7f5d 7b3d c9d1 8c3e 0837 4ebe 2a44 433d
000000c0: cd9b 33be 083a e2bd 4bf5 8abe ec91 8dbe
000000d0: 5490 b13e cb5f 7abe bb7b a73e d392 913e
000000e0: aeda 2fbd d478 3e3d 3f99 b53e 9355 503e
000000f0: 7fff 973e 7b77 20be c8da c53e a758 d53d
00000100: e09e a1bd 8343 963d fb90 5abd 59a9 c53d
00000110: 2697 4e3e 14a0 e4bd 974c 873e f6d3 2cbd
00000120: 3516 943e 9983 58be 8338 8b3e c6f2 86be
00000130: ddc5 b13d b9e5 f9bd 9dbd 913e 9d3b 2fbe
00000140: 93e6 77be 31e1 803e 61b6 85bb 579b fc3d
00000150: 7148 f4bd 5e9d b2bd 48a8 803e bd84 e43d
00000160: a3d6 71bc 6e09 46be 7051 2e3e 18b4 213e
00000170: 762d 913e 96c6 433e d95a a63e 8784 9fbe
00000180: 69cb f0bc 1a5e c0bb be0f 493e b010 88be
00000190: 0620 31be d40c 523e e6ae 97be 861b 72be
000001a0: fe90 9bbe dd49 b5be 43a0 a53e 0f67 14be
000001b0: 681a 14bd 334b bebd a8d9 f1bd 4efd 863e
000001c0: 1954 9cbe 50a8 ab3e d697 15be 09d0 813b
000001d0: b68d 893e 65b0 4a3e 33e9 a83e 26d8 b4be
000001e0: 5e12 46be 1420 b03e abdb 573e f5f5 4abe
000001f0: bfe2 1bbd eb27 56be 4c2f 4cbe 898e 2ebe
00000200: 0c15 6a3e b512 2b3e 7628 973e d270 8d3e
00000210: e46b 643e 215a 4cbe 4a66 05be 5af3 6b3e
00000220: 264f 093e 19da a4be 89af 82be 97bc 07bc
00000230: 7b01 31be 7c22 babe 655a a43c 6a8a 653e
00000240: b97c ea3d 141f 8d3d 3d8c e9bd 76e9 a93d
00000250: 6d68 8cbe 76a3 7d3c 85ae 893e 262e 6cbe
00000260: c258 863e 884b 40be 55e4 853e cea9 143e
00000270: 2d31 c53e b7f1 35be 278a 0b3e a7c4 1f3d
00000280: 3f9d 493d af6d a33c 6694 9dbe 9a26 413e
00000290: ccc3 ccbe aa69 28be d0f8 8fbe bf69 4b3e
000002a0: 36f2 2dbe 8881 4dbe 3080 633e 46ef 97be
000002b0: a78c a6be e4de 9cbe f617 92bd d842 443e
000002c0: 8236 073e 8015 003e 6d7d a5bd fb30 2e3d
000002d0: 0703 bbbe e169 77be bfa8 98be df47 8b3e
000002e0: 840e 08be 0c84 943e 024a 4ebd 09c7 7ebe
000002f0: 8a56 b3be e49d 9cbd 94ed 533d 4eaf 75bd
00000300: 89cc 7d3e 40ba 0ebe fd0c 503c 18b9 24be
00000310: 52d3 cebd 6003 983d 1b0b 8dbc c3b0 bebe
00000320: 2b99 ec3d 1f72 58be 2fca fbba b997 ffbc
00000330: df50 393e e0af 523e 55df e1bd 7d58 063e
00000340: e938 7fbe bdc7 ac3d ae23 03be 6dce 7c3e
00000350: a76b c63c 9c72 853e e617 7fbe 8ae6 b4bd
00000360: 3278 a4be 0a1b 8b3d b80c 823e 546e 6e3c
00000370: f6e4 6fbe 3ed8 3e3d 7b6d 87be c3ef 63be
00000380: a370 8abe e944 cc3d c1e9 9ebe f4c0 adbe
00000390: e12a 0cbd 1240 adbc 58bc a3be 3835 cabe
000003a0: b36c b43c 3e09 983e 5449 813d 7c6f 97bd
000003b0: daa6 113d 9671 8f3d 0bb4 0a3d 0639 a63d
000003c0: 4298 6a3e 1c30 49be b2ad 1fbe 79bb a03d
000003d0: d23c 393e 2cfa 18be 6790 d93c da61 9c3e
000003e0: 3f87 a9be d7e7 2abe fc72 b7be d551 893e
000003f0: 1359 9d3d 33c3 ed3d 0d23 dbbc 6629 963d
-0.11396831 -0.12460894 -0.12574974 -0.038727187 -0.016062152 0.062636174 0.1993522 -0.014394879
-0.1436462 0.23137644 0.055621862 0.29720974 -0.050640475 -0.30706003 -0.074042745 0.034866326
-0.30437726 -0.10758865 0.09592254 0.03469927 0.11356464 0.29885328 -0.055588666 -0.037145637
0.18362409 0.013202945 0.26068753 -0.112959445 -0.27649203 -0.042987328 0.1365628 0.11052542
0.24173191 0.16349736 0.122451045 0.06868341 0.28107867 0.21719877 0.178658 0.1893807
-0.21498004 0.3089542 -0.29137632 0.11896171 0.06136846 0.27503803 -0.2013818 0.04767243
-0.17539902 -0.11046225 -0.2714027 -0.27650392 0.34680426 -0.24450605 0.32711586 0.2843233
-0.04293316 0.04650195 0.3546848 0.20345144 0.29687116 -0.15670578 0.3864348 0.104173
-0.07891631 0.073370956 -0.05336092 0.09651441 0.20174846 -0.11163345 0.2642562 -0.04219433
0.28923193 -0.2114395 0.27191553 -0.26357096 0.086803176 -0.12202019 0.28464976 -0.17112584
-0.24209051 0.25171807 -0.004080579 0.12334316 -0.119278796 -0.08721422 0.25128388 0.1115813
-0.014760646 -0.19339535 0.17023253 0.15791357 0.28354996 0.19118723 0.32491186 -0.31155798
-0.029393869 -0.005870593 0.19634911 -0.26575232 -0.17297372 0.20512706 -0.29625624 -0.23643312
-0.30384058 -0.35407916 0.32348832 -0.14492439 -0.036157995 -0.09291687 -0.11809093 0.2636513
-0.3053291 0.3352685 -0.14608702 0.0039615673 0.2686593 0.19793852 0.32990417 -0.35321158
-0.19342944 0.34399474 0.2107989 -0.19820388 -0.03805804 -0.20913665 -0.19939917 -0.1704656
0.22859591 0.16706355 0.29523057 0.27625138 0.22306782 -0.19956256 -0.13027301 0.2304205
0.13409099 -0.32197645 -0.25524548 -0.008284709 -0.17285721 -0.36354434 0.020062635 0.22416082
0.1144957 0.06890693 -0.114037015 0.08296482 -0.2742342 0.015480867 0.2689096 -0.23064479
0.26239592 -0.18778813 0.26150766 0.145179 0.3851408 -0.17767988 0.1362692 0.0390059
0.049222227 0.019949762 -0.30777282 0.18862382 -0.3999313 -0.16446558 -0.28119516 0.19864558
-0.16986927 -0.20068944 0.22216868 -0.2967474 -0.32529184 -0.30638802 -0.071334764 0.19166124
0.13204387 0.12508202 -0.08080564 0.04252718 -0.36525747 -0.24161483 -0.29816243 0.2720327
-0.13286787 0.29006994 -0.050363548 -0.24880613 -0.35026962 -0.07647303 0.051740244 -0.059981637
0.24785055 -0.13938236 0.012698409 -0.16086233 -0.100989 0.07422519 -0.01721721 -0.37244233
0.11552652 -0.21137284 -0.0019210036 -0.031200277 0.18097256 0.20574903 -0.11028925 0.13119693
-0.24924053 0.084365346 -0.1280658 0.2468812 0.024221255 0.26064003 -0.2491146 -0.08833034
-0.32122952 0.06792267 0.2540033 0.014552671 -0.23427185 0.046592943 -0.26450714 -0.2225943
-0.2703906 0.09974081 -0.31037715 -0.33936274 -0.03422058 -0.021148715 -0.31979632 -0.39493728
0.022024488 0.2969455 0.06312814 -0.07394311 0.035559513 0.07004087 0.03386311 0.08116345
0.22909644 -0.19647259 -0.15593603 0.078482576 0.18089607 -0.14939183 0.026558114 0.30543405
-0.33110997 -0.16690002 -0.35829914 0.26820245 0.07683005 0.11609497 -0.026750112 0.07332115

conv4.bias f4 [2]
00000000: bbe8 24bc b3e8 243c
-0.010065253 0.010065245

conv4.lin.weight f4 [2, 16]
00000000: d8a9 6fbe e6db 81be 0712 203e f33d 663e
00000010: bfec e6bd 08c7 0b3e eb18 d7bd f989 e8be
00000020: 301c 403d 0a92 4c3d 25d6 d5be 2294 07bf
00000030: 8d97 69bd 49e1 d4be 4c00 4e3e 1a34 6f3e
00000040: 4217 903e f012 d4be ed93 1dbd c5ed 703e
00000050: 723b 23be 621f 313e 7e82 0c3e 3f9f b33e
00000060: 45fd b73e ea41 093e d21b f4be 6ddd f6be
00000070: d2a9 e7bd 04b3 1cbf c15e 8abe 4464 dc3d
-0.23404634 -0.25363082 0.15631877 0.22484569 -0.112756245 0.13650143 -0.105027996 -0.45417765
0.04690188 0.04994396 -0.41764942 -0.5296041 -0.057029296 -0.4157813 0.20117301 0.23359719
0.28142744 -0.41420698 -0.03847115 0.23528202 -0.15940645 0.17297128 0.13721654 0.35082433
0.35935417 0.1340405 -0.47677475 -0.4821581 -0.113116875 -0.61210656 -0.27025416 0.10761312
